model_coefficients.npy (npy, 992 bytes, 1 tensors)

array f8 [3, 36]
00000000: d7ba 3117 8fa9 913f 1349 4e97 df57 993f
00000010: bb85 082b b650 bdbf 463e b586 cf2c b8bf
00000020: f590 7c04 9cc9 a13f 6491 7c04 9cc9 a13f
00000030: 3a98 4c7b 3e79 eb3f 81d8 6c99 2006 c13f
00000040: e931 0443 5bc2 e9bf c4ab 0ab0 f31d eebf
00000050: 004f 2f7c 58bb 09c0 46ed d1bf 8333 f63f
00000060: 5587 9b5b d688 1440 fcad 93a6 53b7 81bf
00000070: 4b1d c806 f2e6 97bf b2ac bf0b 96a3 a9bf
00000080: 4bb0 a68a ab61 a6bf 3020 6fd9 58c3 7fbf
00000090: dc73 26a2 8622 84bf 95ac 379c 1fc7 8fbf
000000a0: 2cd1 c2e0 0359 4d3f f194 81c1 1cb7 6c3f
000000b0: f63d 3d37 2c56 c0bf aeee 93f2 c370 f3bf
000000c0: 0749 5e6f dd1c cc3f ce0c a4f4 6f17 d13f
000000d0: 347b faed 17fd c3bf f78f c4c3 db94 b1bf
000000e0: 7278 e863 08be dabf a646 7f50 41e3 0140
000000f0: 5883 cd53 1561 cabf 5c91 921c 5363 d1bf
00000100: 8dce 470d b0c7 d5bf 578b 3221 177a bf3f
00000110: 5d65 dfb3 047d 31c0 44fb 5183 baa8 e33f
00000120: 0ac4 0c2c 275c 9fbf d898 6150 d860 503f
00000130: 397c d151 c363 c13f 1f2f fa63 cbb9 b23f
00000140: ff8e ef17 a174 71bf 97c7 ef17 a174 71bf
00000150: 594b 7b75 b9ff b2bf 1071 9a7a 4f65 85bf
00000160: c42e 76fd d1c8 923f bc8f fe2b a4d3 b03f
00000170: 52a8 ba7e 5be7 bf3f f985 03d8 b079 b63f
00000180: 8953 96a2 5422 a43f 14d8 44e6 f713 8c3f
00000190: 93a5 bd38 fe4e a0bf c8f9 3ff2 03ff a93f
000001a0: 2561 ec42 299d 933f fa16 cb58 1679 70bf
000001b0: 5e9f 2dca 8a2b 8abf e177 11b4 2abe 7cbf
000001c0: 7a1b 01f5 fa1b 94bf 9287 d1cb 249f 5c3f
000001d0: 6217 7126 8864 7f3f d7cb 7e8f 7416 c03f
000001e0: afb9 06d2 882e b3bf a3d7 3aa8 f7ab aabf
000001f0: 9b88 4fc0 4985 b3bf 01d2 e2bd 59a2 c0bf
00000200: a05e ba54 171b 79bf ae3e 5d87 25f4 b8bf
00000210: 38df c597 3df5 ac3f 1628 191a 5b88 9f3f
00000220: da47 e524 9828 983f f3ed 1b74 2859 b6bf
00000230: 6f84 0332 9d26 0f40 f173 8352 7bb5 b8bf
00000240: 8d2a b629 3065 8b3f 9f2e 541c ed5d 9abf
00000250: 17c8 68e2 41db 95bf 773a ec8a 10cc 953f
00000260: d438 fdc2 0f36 9fbf 5e34 fdc2 0f36 9fbf
00000270: 1a2d 9d4c 4719 e9bf 547e 8643 975f bfbf
00000280: c385 18b3 142c e93f eedc 8a2a 7f03 ec3f
00000290: 0b7a 39a0 1dbc 0840 7225 52cd 1e9b f7bf
000002a0: 52b4 e004 1bb1 14c0 167e 627f 48b9 74bf
000002b0: 07aa 213c 7742 ac3f a5d2 13a0 79db 46bf
000002c0: 36f8 60d2 2d26 993f 5715 1d99 371e 883f
000002d0: 0607 2ab6 0827 973f 022c 207b 1a13 973f
000002e0: e1fa fad5 3231 933f cc7b b593 5783 75bf
000002f0: 8478 13ec 0fb6 be3f 4311 a460 f56d f13f
00000300: cdee 5a06 9985 c2bf 625d 39ff e183 cbbf
00000310: 834d 22ce bcbf cd3f 0323 c59f c76c c93f
00000320: 7161 3bc1 7422 db3f 265d 4424 a01b 01c0
00000330: f707 dced c523 c33f cfeb e1d5 9ad5 ce3f
00000340: ab79 f98a 2645 d43f 393f 2d5a dd41 a2bf
00000350: 30e9 3d1b 6230 2b40 e78c 0119 0b92 e0bf
0.017248378554024803 0.02474927292821245 -0.11451281118981786 -0.09443375624436454 0.034741282985381185 0.034741282985381955 0.8585503013789613 0.1329994916101818
-0.8049751576341438 -0.9411562383951311 -3.216477365678543 1.387576817795734 5.133630210273471 -0.008650449296019318 -0.02334192434684938 -0.05007618802468396
-0.04371391360777518 -0.0077546568563278545 -0.009831477950507699 -0.015516516642455161 0.0008956211982167664 0.003505283511958106 -0.12762978265025965 -1.2150306201646504
0.2196308893003975 0.26705550089554897 -0.15616129989663252 -0.06867764977920375 -0.4178486800827904 2.235964421161799 -0.2060877474969185 -0.2716872958210581
-0.3403129701320971 0.12295670090183584 -17.488353006401088 0.6143467488144343 -0.030624973357763742 0.000999652141695109 0.13585702414545311 0.07314749899722671
-0.004261616965752556 -0.004261616965765123 -0.07421454542354179 -0.010447140626006518 0.018344193549224355 0.06572938989717064 0.12462398380253717 0.08779435418866645
0.03932442173678569 0.013709961619138546 -0.031852669168823365 0.05077373821403658 0.019154209813764162 -0.004021727840784578 -0.012778362555493746 -0.007017294702647421
-0.01963798637759904 0.0017469271981771267 0.007664234005522493 0.125685281816543 -0.07492880942911627 -0.05209325722300597 -0.07625256486020009 -0.1299545457055871
-0.0061293517461745994 -0.09747538142004927 0.05655853727051724 0.03079359385291277 0.023592355014734646 -0.0872979434461099 3.893854513866749 -0.09651919140328837
0.013376594803749664 -0.02574892506986137 -0.02134421295540542 0.021286257247135922 -0.03047966601962389 -0.030479666019619926 -0.784335755955371 -0.1225523509842728
0.7866309640850705 0.8754268484980494 3.09185338187604 -1.475371171984389 -5.172954632010333 -0.005059512323128531 0.05519459351565464 -0.0006975501893565396
0.024559703794004593 0.01177638469710966 0.022609840505999144 0.022533811345095252 0.018742365179373336 -0.005252210710152871 0.11996554864478709 1.0893453383478835
-0.14470207987129982 -0.2149622436724981 0.23241386475693213 0.19863219548485497 0.42397803182895816 -2.1384890397418017 0.14952921022637586 0.24089370196801815
0.3167206151173569 -0.03565875745573383 13.594498492534143 -0.5178275574111496
